ActionDetection/Models/action_test_2.onnx (onnx, 824614 bytes, 15 tensors)

sequential/dense_2/MatMul/ReadVariableOp:0 f4 [32, 5]
-0.17763071 0.24282883 -0.37565 0.12229356 0.05049566 -0.046685275 0.17255247 0.42000973
-0.42596403 0.0020800417 -0.42700958 -0.4776813 -0.27734903 0.38436168 -0.3880905 -0.20189643
0.3390552 -0.27233002 0.29286993 -0.12102191 -0.15214282 -0.37083757 0.05038991 -0.11794944
-0.033513542 0.09927261 0.18887606 -0.07380382 -0.113746926 -0.25102544 0.110083945 0.24968214
0.43940443 -0.7888008 0.30850673 -0.29261857 0.23714285 -0.11374778 0.08272032 -0.2796054
0.3734949 -0.24190748 0.18112381 0.2464118 -0.04282845 -1.0374237 -0.20344844 0.43828383
0.14028808 -0.17438589 0.16619062 -0.07165709 -0.068289645 -0.14964521 0.30505657 0.35218686
-0.11075171 0.16400509 -0.29949316 -0.35757774 0.17906067 -0.053400062 -0.4270307 -0.10258802
0.03564646 0.3430145 -0.055364136 0.021559585 -0.22528426 -0.15421472 -0.1630346 -0.08280263
0.16981938 0.40681103 0.27532482 0.033943847 0.1718784 -0.20977463 0.1843158 -0.38076228
0.1452595 0.01693497 -0.23767337 0.2708285 -0.35231787 0.0063506393 0.052465487 -0.34648812
0.009742441 0.30821243 -0.06941779 0.29472852 -0.37763682 0.16143937 0.1297127 0.1828338
0.19196054 -0.36785582 0.41350463 -0.2577959 -0.34972468 -0.028793903 -0.33223307 -0.18058576
0.34939396 0.14788523 -0.023348762 0.081635185 -0.1688056 -0.2499603 -0.2759094 -0.30441502
-0.085721344 -0.17884603 -0.120235205 -0.057165705 0.05114246 0.18845324 0.1287451 0.12231537
0.38519633 -0.0492606 -0.11621854 0.25035194 0.21731615 0.123998314 0.14891855 -0.24740256
-0.34700084 -0.22029582 -0.19533157 -0.39368355 0.03828868 0.06776652 0.25251508 -0.32749456
0.2603477 -0.32608345 -0.34421802 -0.10339122 0.17596827 0.22769758 -0.07121176 0.032445643
-0.20148025 -0.31694585 -0.13259698 0.10378352 -0.15800391 -0.0054864245 -0.056881327 -0.075735964
0.41930118 0.0945311 0.17899667 -0.07442858 -0.01272621 0.36529288 -0.054752354 0.181435
00000000: d3e4 35be 1fa8 783e 3255 c0be 0c75 fa3d
00000010: 8ad4 4e3d 0f39 3fbd 98b1 303e 840b d73e
00000020: f517 dabe 4f51 083b 00a1 dabe a592 f4be
00000030: b100 8ebe 0ecb c43e ccb3 c6be f0bd 4ebe
00000040: a598 ad3e d76e 8bbe 0cf3 953e 56da f7bd
00000050: 54cb 1bbe 6cde bdbe a665 4e3d 7a8f f1bd
00000060: 7f45 09bd 704f cb3d ba68 413e 7526 97bd
00000070: 26f4 e8bd 6886 80be b173 e13d adac 7f3e
00000080: 9ef9 e03e d9ee 49bf 98f4 9d3e 1ad2 95be
00000090: 93d5 723e 99f4 e8bd 4569 a93d 7028 8fbe
000000a0: b93a bf3e 98b6 77be 8578 393e 6053 7c3e
000000b0: e36c 2fbd 4dca 84bf ca54 50be bd66 e03e
000000c0: aea7 0f3e 3792 32be e02d 2a3e f4c0 92bd
000000d0: 71db 8bbd 983c 19be 6030 9c3e d651 b43e
000000e0: cbd1 e2bd f3f0 273e 2b57 99be 6e14 b7be
000000f0: ae5b 373e 06ba 5abd c5a3 dabe ab19 d2bd
00000100: 0602 123d 999f af3e 81c5 62bd ba9d b03c
00000110: ebb0 66be 77ea 1dbe 8bf2 26be 6d94 a9bd
00000120: 22e5 2d3e 8949 d03e 60f7 8c3e b408 0b3d
00000130: e400 303e 29cf 56be 48bd 3c3e 46f3 c2be
00000140: e8be 143e 35bb 8a3c a660 73be 08aa 8a3e
00000150: 0263 b4be 0619 d03b 0de6 563d e466 b1be
00000160: c29e 1f3c 05ce 9d3e ea2a 8ebd a8e6 963e
00000170: 9d59 c1be 5d50 253e 68d3 043e c938 3b3e
00000180: 4e91 443e 9957 bcbe e1b6 d33e d3fd 83be
00000190: 1d0f b3be 31e1 ebbc 741a aabe 79eb 38be
000001a0: c4e3 b23e 3a6f 173e e745 bfbc 5930 a73d
000001b0: 60db 2cbe 98f5 7fbe ff43 8dbe 49dc 9bbe
000001c0: ac8e afbd 6a23 37be e03d f6bd 9626 6abd
000001d0: c27a 513d e3f9 403e c1d5 033e 7b80 fa3d
000001e0: 7438 c53e 7cc5 49bd fc03 eebd 212e 803e
000001f0: 2088 5e3e d4f2 fd3d 1b7e 183e 1957 7dbe
00000200: 18aa b1be 3a95 61be 0005 48be e490 c9be
00000210: 97d4 1c3d 2cc9 8a3d a849 813e 5ead a7be
00000220: 4b4c 853e 69f4 a6be 583d b0be c7be d3bd
00000230: 0731 343e 8e29 693e 79d7 91bd b9e5 043d
00000240: d750 4ebe ba46 a2be 81c7 07be 748c d43d
00000250: c7cb 21be 77c7 b3bb 65fc 68bd 751b 9bbd
00000260: a5ae d63e 8599 c13d e74a 373e 036e 98bd
00000270: 9881 50bc ab07 bb3e 0144 60bd 19ca 393e

sequential/dense_2/BiasAdd/ReadVariableOp:0 f4 [5]
0.10368574 -0.024447238 -0.19701521 -0.0795671 0.14930154
00000000: 3059 d43d 9345 c8bc 5bbe 49be 13f4 a2bd
00000010: 81e2 183e

sequential/dense_1/MatMul/ReadVariableOp:0 f4 [64, 32]
0.16170795 -0.04825518 0.06912906 -0.016487999 -0.11367516 0.067951985 0.06474089 0.055126004
-0.25578183 -0.075658105 0.008459422 -0.12148676 0.22322422 -0.1373265 0.008172695 0.1234369
0.1495525 -0.11810757 -0.23072328 0.08115428 -0.14309464 0.043952305 -0.08108616 -0.07380854
0.050338067 0.023592943 0.14568828 0.19287057 0.053287752 0.1205506 0.15033397 0.19987778
0.06625198 0.13080555 0.2715167 -0.17964558 -0.03538856 -0.14363128 -0.17212884 -0.12214205
0.11569445 0.35037807 -0.05427221 0.18787454 0.065083675 0.20623387 -0.0016769625 0.18082847
-0.12204684 -0.24844313 0.17992662 -0.26774362 -0.087279096 0.29998955 0.08853881 0.1379192
-0.30778825 -0.12152624 0.09388395 0.1197817 0.22036086 0.294449 0.2433179 0.2672359
-0.20224874 0.16252291 0.13437024 0.24714515 -0.054339655 0.055383675 0.40906668 -0.13733637
0.17973875 0.07220823 -0.19490823 -0.19502778 0.0027665293 -0.108245246 -0.15061037 0.043586228
0.06288134 -0.22535875 0.14971453 -0.27399495 0.06860392 0.011282412 -0.022179933 -0.02752092
0.07840906 0.0022953225 0.25267407 0.046159085 -0.0864225 0.28088507 -0.1464159 0.07131397
0.2398406 -0.02526264 -0.04160873 0.060610615 0.2152764 -0.16998987 0.26441872 -0.14327468
-0.10218936 -0.11498552 0.081766814 0.057854276 0.22095023 0.023054967 0.052588165 0.098151654
-0.13329631 0.08378 0.18657187 -0.13421999 0.091542415 -0.12862769 0.14735019 -0.1614863
0.009625052 -0.20423047 -0.22388579 -0.17726283 -0.005124108 -0.010602972 -0.21110044 0.06461167
-0.023766922 -0.1171439 -0.2799229 0.1690328 0.020156147 0.081614845 0.043690354 0.074420385
-0.05884791 -0.13728946 -0.017098386 0.035741817 -0.21853353 0.063268624 -0.15621482 0.18773095
0.07798892 -0.1802974 -0.11261279 -0.07752785 -0.12535405 0.21816951 0.22488134 0.20622085
-0.0672585 0.017429534 -0.06684265 -0.24123459 0.19649239 0.030223805 -0.064114004 0.031583205
-0.053042013 -0.14663899 -0.0069549964 -0.030670412 -0.24048086 0.12960102 -0.19287777 -0.18933135
0.06525462 -0.2459177 -0.12033764 0.012012287 0.09328478 -0.12426411 -0.2195868 0.12762487
-0.08139041 0.10912927 -0.08049791 -0.252527 -0.15316199 -0.04882723 -0.27529913 0.096201085
0.036571585 -0.037856605 0.18399887 0.082647555 0.17743954 0.053133406 -0.056302022 0.05424986
-0.18439344 0.19511716 -0.2366599 0.12583183 -0.036528952 0.0817735 0.1591493 0.047152575
0.15820909 0.013878415 0.06799185 -0.103860594 -0.09818053 -0.25293642 0.1573027 -0.16929904
0.18143287 -0.04410039 -0.19614716 0.18270624 -0.006216674 0.08934205 0.17935431 -0.20453948
-0.027419388 -0.12975822 -0.15412153 -0.017246576 -0.22532181 0.15681143 -0.08251995 0.033542477
0.08381154 -0.09158611 -0.11951975 -0.27458817 0.19786373 -0.10203232 -0.28090584 0.24455383
0.04325143 0.10865727 0.14783579 0.11953475 0.08637242 0.044698812 0.075476624 -0.08240416
0.21399648 -0.13141459 0.23866995 0.07483013 -0.20424442 -0.1527697 0.14815387 -0.11759282
-0.0313803 0.1650877 0.20973516 -0.07747223 -0.16075587 -0.026229577 0.15571252 -0.16394162
00000000: c596 253e 39a7 45bd 8993 8d3d d711 87bc
00000010: 86ce e8bd 692a 8b3d df96 843d cecb 613d
00000020: d6f5 82be a3f2 9abd 6399 0a3c 0dce f8bd
00000030: e494 643e 519f 0cbe c4e6 053c 7ccc fc3d
00000040: 4a24 193e 62e2 f1bd b942 6cbe 3734 a63d
00000050: 6787 12be 5507 343d 8010 a6bd ef28 97bd
00000060: 4a2f 4e3d fd45 c13c 4f2f 153e dd7f 453e
00000070: 4244 5a3d 3ce3 f63d 26f1 193e c3ac 4c3e
00000080: 1eaf 873d e4f1 053e 3d04 8b3e 03f5 37be
00000090: 98f3 10bd 1414 13be 8b42 30be 9c25 fabd
000000a0: 36f1 ec3d c164 b33e 894c 5ebd 2f62 403e
000000b0: 974a 853d f92e 533e 86cd dbba 192b 393e
000000c0: b2f3 f9bd e067 7ebe af3e 383e b115 89be
000000d0: 62bf b2bd 3b98 993e d653 b53d b13a 0d3e
000000e0: 6c96 9dbe c0e2 f8bd 3a46 c03d 1c50 f53d
000000f0: 47a6 613e 05c2 963e 5428 793e 25d3 883e
00000100: 4b1a 4fbe 686c 263e 5a98 093e 9e13 7d3e
00000110: 4293 5ebd fed9 623d 3071 d13e e8a1 0cbe
00000120: 6f0d 383e e9e1 933d 0696 47be 5db5 47be
00000130: a94e 353b afaf ddbd 9b39 1abe 7987 323d
00000140: efc7 803d 72c4 66be c44e 193e 1149 8cbe
00000150: 3680 8c3d ded9 383c b1b2 b5bc 8d73 e1bc
00000160: ee94 a03d 1f6d 163b 7f5e 813e 4f11 3d3d
00000170: 48fe b0bd 2bd0 8f3e 0dee 15be 0f0d 923d
00000180: c698 753e 99f3 cebc ea6d 2abd d642 783d
00000190: 6b71 5c3e d311 2ebe e461 873e 99b6 12be
000001a0: a848 d1bd 877d ebbd 5c75 a73d 9bf8 6c3d
000001b0: c740 623e c5dd bc3c b066 573d bc03 c93d
000001c0: d47e 08be d994 ab3d b20c 3f3e f770 09be
000001d0: 977a bb3d fab6 03be f8e2 163e aa5c 25be
000001e0: 65b2 1d3c cb21 51be 5142 65be 6384 35be
000001f0: 22e8 a7bb 16b8 2dbc b72a 58be 2053 843d
00000200: d9b2 c2bc 24e9 efbd 0e52 8fbe ef16 2d3e
00000210: 811e a53c af25 a73d a8f4 323d b769 983d
00000220: 820a 71bd 9c95 0cbe ea11 8cbc 0366 123d
00000230: 41c7 5fbe fb92 813d c7f6 1fbe 8b3c 403e
00000240: a8b8 9f3d e29f 38be 89a1 e6bd ecc6 9ebd
00000250: d05c 00be d467 5f3e 4b47 663e 8f2b 533e
00000260: d3be 89bd 62c8 8e3c cde4 88bd 3306 77be
00000270: 4d35 493e ea97 f73c 344e 83bd 645d 013d
00000280: 9542 59bd 8828 16be bde6 e3bb 8440 fbbc
00000290: 9d40 76be 21b6 043e c081 45be 14e0 41be
000002a0: 37a4 853d d9d1 7bbe 9573 f6bd 2fcf 443c
000002b0: 170c bf3d 2f7e febd 5ddb 60be 18b0 023e
000002c0: 04b0 a6bd 2b7f df3d 17dc a4bd 384b 81be
000002d0: 7fd6 1cbe 10ff 47bd 02f4 8cbe 1305 c53d
000002e0: 16cc 153d 870f 1bbd 336a 3c3e 1f43 a93d
000002f0: b6b2 353e 6aa2 593d f39c 66bd 1a35 5e3d
00000300: a2d1 3cbe cbcc 473e f956 72be 0fda 003e
00000310: 629f 15bd dd78 a73d 09f8 223e 0f23 413d
00000320: 9001 223e 4b62 633c 503f 8b3d ddb4 d4bd
00000330: e012 c9bd e280 81be f613 213e ba5c 2dbe
00000340: 8ac9 393e 9ca2 34bd cdda 48be 5817 3b3e
00000350: 3eb5 cbbb f7f8 b63d a8a8 373e cc72 51be
00000360: a09e e0bc 57df 04be 09d2 1dbe b148 8dbc
00000370: c3ba 66be 2d93 203e 3800 a9bd d663 093d
00000380: 62a5 ab3d 8091 bbbd c5c6 f4bd d296 8cbe
00000390: ca9c 4a3e 52f6 d0bd e4d2 8fbe 526c 7a3e
000003a0: 6928 313d b487 de3d 4462 173e a3ce f43d
000003b0: 06e4 b03d 1a16 373d 7d93 9a3d 83c3 a8bd
000003c0: e521 5b3e 8c91 06be e565 743e 8a40 993d
000003d0: 7325 51be a96f 1cbe a6b5 173e 81d4 f0bd
000003e0: a188 00bd c00c 293e d0c4 563e c3a9 9ebd
000003f0: 309d 24be 69df d6bc 1a73 1f3e 50e0 27be

sequential/dense_1/BiasAdd/ReadVariableOp:0 f4 [32]
0.071882285 -0.056224942 0.04681916 -0.0043729804 0.071126826 0.032157525 0.09688409 -0.16992545
0.07036443 0.15411457 -0.000737169 0.008320776 0.20280644 -0.06934578 0.15990412 -0.0034826468
0.012364375 0.18035553 -0.009095419 0.0928034 0.2225516 -0.08024231 0.10501013 0.15746059
0.16902341 -0.01108428 0.13657637 0.016437015 -0.049429506 -0.008193272 -0.03914746 0.089893624
00000000: 0537 933d 204c 66bd 73c5 3f3d 384b 8fbb
00000010: f1aa 913d 9cb7 033d 2a6b c63d f000 2ebe
00000020: 3a1b 903d 36d0 1d3e 933e 41ba dd53 083c
00000030: 7eac 4f3e 2905 8ebd e8bd 233e 1e3d 64bb
00000040: f393 4a3c 1faf 383e f404 15bc b50f be3d
00000050: 91e4 633e 1556 a4bd 8d0f d73d 593d 213e
00000060: 7914 2d3e d79a 35bc adda 0b3e eba6 863c
00000070: 9876 4abd 133d 06bc 1659 20bd 261a b83d

sequential/dense/MatMul/ReadVariableOp:0 f4 [64, 64]
0.1677374 0.18638264 -0.1236651 -0.058506794 -0.07424276 -0.19722505 -0.1289851 0.16363215
0.09413992 -0.16810955 -0.08103428 0.12624551 -0.12424745 0.09374972 -0.17751677 0.12197293
-0.0883093 -0.21113731 0.09805372 0.055848755 -0.19634937 0.04542001 0.0819241 0.09660445
0.1075298 -0.13328236 -0.12620558 -0.23400576 0.031391162 0.064771816 -0.11750597 0.2063466
0.11882494 0.054322146 -0.09885722 -0.17677955 0.026015135 0.2121132 0.009474302 0.22125956
0.11427262 0.20393403 0.15389301 0.10756109 0.14197403 0.10676896 -0.13616031 0.18178128
-0.0768664 -0.1518406 -0.0069239265 -0.09949693 -0.041755572 -0.15369743 0.15781823 -0.21049562
0.14265998 0.11464706 0.0204941 0.13680461 0.09649735 -0.22177705 -0.2277077 0.14875059
0.020170849 -0.043265652 0.104466185 0.19796486 0.005079888 0.019439274 0.0080414945 -0.042849924
-0.10568447 -0.13784516 0.18579902 -0.14016111 0.12458648 -0.08453586 -0.24161583 0.13027678
-0.110462196 0.11221045 0.08245759 -0.15958948 -0.21582222 -0.1152852 -0.042455666 -0.05327699
-0.076235875 -0.0597082 -0.23664974 -0.1523026 0.07911413 -0.10122192 0.11459547 0.29393288
0.1678325 0.13444228 -0.0034106846 -0.027981574 1.0521428e-05 0.098371096 -0.062213305 -0.017597647
-0.043613173 0.20720544 0.16293156 -0.18573307 0.21830204 0.16806827 0.04335588 -0.11448035
0.13707769 -0.22078437 -0.18995464 0.30347157 0.17857063 -0.11957994 0.14712481 -0.07527177
0.11637059 0.18495326 0.0739554 0.13820012 0.13411641 -0.1034732 0.047987673 -0.050204217
0.12539846 0.20081514 -0.18479863 0.18650925 0.1770031 0.0959861 -0.11439462 0.0297138
-0.09503834 -0.2709216 -0.15869886 -0.19693835 -0.20928869 0.026515046 -0.07410101 -0.13807975
0.15835838 -0.09543492 -0.011129345 -0.2092764 -0.07743041 -0.24045336 0.25704488 0.030036874
0.14164953 0.1487873 0.06751028 -0.023191212 0.07904642 -0.011514922 0.05657053 0.1423929
-0.13616076 -0.21319005 0.10720929 -0.12962167 -0.3832538 0.025906458 0.19459073 -0.21359172
-0.11499358 0.09110206 0.1288255 0.16475138 -0.077843145 -0.055002335 -0.19628078 0.2521177
-0.1698617 -0.06447922 0.0996711 -0.1480426 0.01028009 0.0023736076 -0.02618201 0.1295654
-0.18831493 -0.021927929 0.17919783 0.02065606 -0.04179058 0.0034854047 -0.074071944 0.106997766
0.06253755 0.06452406 -0.20781846 0.13735098 0.12235092 -0.088470384 -0.03696206 0.054934256
-0.1238106 -0.12664789 -0.06133322 0.23220249 -0.1603448 -0.043920536 -0.14975467 0.2197412
0.170989 -0.08478637 0.09484973 -0.19110802 0.10207422 0.108512916 0.06562761 -0.050170008
-0.07696823 -0.17828764 -0.031723488 -0.20218442 0.14030184 -0.0025063509 -0.070580974 0.13285644
0.08247053 0.06651127 -0.26311398 0.15648483 -0.029991793 -0.072219744 0.106966265 0.19961022
-0.050018515 0.08447526 0.07406182 0.11244932 -0.029196726 0.13040051 0.010716488 -0.18109715
0.09670097 0.08665545 -0.21252552 -0.10598047 -0.17328021 0.1845024 0.19113977 0.17427386
-0.15365143 0.07069723 -0.049585596 -0.02412476 0.06731956 -0.01565933 0.087591834 -0.009897238
00000000: 5ac3 2b3e 17db 3e3e 2144 fdbd d2a4 6fbd
00000010: 970c 98bd 5df5 49be ac14 04be 308f 273e
00000020: 6ecc c03d e924 2cbe 4df5 a5bd 8146 013e
00000030: 7275 febd daff bf3d f5c6 35be f2cc f93d
00000040: 82db b4bd 6134 58be 64d0 c83d aac1 643d
00000050: cf0f 49be 550a 3a3d d3c7 a73d 8ed8 c53d
00000060: 9538 dc3d 2c7b 08be 093c 01be 359f 6fbe
00000070: 0594 003d 16a7 843d f8a6 f0bd 864c 533e
00000080: 7d5a f33d e680 5e3d a775 cabd b305 35be
00000090: b11d d53c 3434 593e 1a3a 1b3c de91 623e
000000a0: c307 ea3d 15d4 503e 2196 1d3e fd48 dc3d
000000b0: a461 113e afa9 da3d 9c6d 0bbe df24 3a3e
000000c0: 226c 9dbd 1a7c 1bbe 1be2 e2bb 0cc5 cbbd
000000d0: e407 2bbd dc62 1dbe 1a9b 213e 2a8c 57be
000000e0: 7515 123e 14cc ea3d 3ee3 a73c 8216 0c3e
000000f0: 67a0 c53d 8619 63be 352c 69be 1352 183e
00000100: 563d a53c 5337 31bd 5ef2 d53d 4db7 4a3e
00000110: 3075 a63b 1d3f 9f3c 79c0 033c 6783 2fbd
00000120: 1971 d8bd 4827 0dbe 1942 3e3e 6586 0fbe
00000130: 3227 ff3d 2321 adbd 246a 77be 4767 053e
00000140: 013a e2bd 98ce e53d 86df a83d 6d6b 23be
00000150: 8000 5dbe a61a ecbd fee5 2dbd f938 5abd
00000160: 8e21 9cbd 9690 74bd 4f54 72be 36f5 1bbe
00000170: 9706 a23d 704d cfbd 08b1 ea3d 5f7e 963e
00000180: 48dc 2b3e 3dab 093e cb85 5fbb 9d39 e5bc
00000190: 3085 3037 c976 c93d 61d3 7ebd f128 90bc
000001a0: baa3 32bd aa2d 543e 88d7 263e cf30 3ebe
000001b0: 928a 5f3e 171a 2c3e ef95 313d ac74 eabd
000001c0: 185e 0c3e 4c15 62be 7883 42be a060 9b3e
000001d0: 38db 363e 54e6 f4bd e3a7 163e 1628 9abd
000001e0: b453 ee3d 6364 3d3e ee75 973d 5584 0d3e
000001f0: d055 093e c2e9 d3bd b98e 443d f0a2 4dbd
00000200: 7468 003e 7ca2 4d3e da3b 3dbe 48fc 3e3e
00000210: 4d40 353e 5c94 c43d ba47 eabd 5b6a f33c
00000220: 76a3 c2bd 3cb6 8abe f481 22be 35aa 49be
00000230: c64f 56be 1536 d93c 45c2 97bd c764 0dbe
00000240: b328 223e 6273 c3bd db57 36bc 8d4c 56be
00000250: d693 9ebd 6839 76be 639b 833e e40f f63c
00000260: 930c 113e b35b 183e d442 8a3d 7ffb bdbc
00000270: 17e3 a13d 15a9 3cbc 80b6 673d 72cf 113e
00000280: ba6d 0bbe 7e4e 5abe 8b90 db3d 8bbb 04be
00000290: d839 c4be c839 d43c cb42 473e cab7 5abe
000002a0: c181 ebbd b893 ba3d d5ea 033e 96b4 283e
000002b0: 3a6c 9fbd 214a 61bd d4fd 48be 9215 813e
000002c0: 3af0 2dbe ae0d 84bd 5d20 cc3d 7b98 17be
000002d0: d36d 283c 878e 1b3b a87b d6bc cbac 043e
000002e0: a1d5 40be 33a2 b3bc a37f 373e e636 a93c
000002f0: 992c 2bbd 636b 643b 08b3 97bd a521 db3d
00000300: b013 803d 3125 843d 5dce 54be bca5 0c3e
00000310: 1f93 fa3d f62f b5bd 8765 17bd be02 613d
00000320: 6990 fdbd fcaf 01be 8b38 7bbd 7dc6 6d3e
00000330: 6d31 24be 05e6 33bd 4a59 19be d603 613e
00000340: be17 2f3e 7aa4 adbd 9340 c23d d2b1 43be
00000350: 4a0c d13d 053c de3d c567 863d 117f 4dbd
00000360: 85a1 9dbd 0991 36be 7df0 01bd 6f09 4fbe
00000370: 49ab 0f3e 9741 24bb c28c 90bd 850b 083e
00000380: 4fe6 a83d 1037 883d e0b6 86be 8f3d 203e
00000390: 59b1 f5bc f2e7 93bd 2111 db3d 9f66 4c3e
000003a0: 37e0 4cbd 5d01 ad3d b9ad 973d d44b e63d
000003b0: f92d efbc b687 053e 3594 2f3c 8871 39be
000003c0: 280b c63d 6a78 b13d 4aa0 59be 4a0c d9bd
000003d0: 5e70 31be 32ee 3c3e 25ba 433e d974 323e
000003e0: cd56 1dbe b6c9 903d 441a 4bbd 4aa1 c5bc
000003f0: d6de 893d ff47 80bc 5963 b33d 0628 22bc

sequential/dense/BiasAdd/ReadVariableOp:0 f4 [64]
0.029414611 0.050893694 -0.026810013 0.20307808 -0.100967824 0.016926773 0.03877492 0.038551617
0.12309204 0.08765874 0.082474865 0.14456508 0.018916424 0.08093298 0.08504237 0.14289539
0.10176914 0.17666672 -0.1528652 0.16103256 0.09527652 0.07668387 0.13868986 0.13178954
0.16518736 0.15392403 -0.0716253 0.07349999 -0.002916564 -0.007313723 -0.06350699 0.093888916
-0.023839062 0.17541626 0.1695388 0.03139435 0.17534181 -0.050827973 0.013887459 0.13918655
-0.042102177 -0.20440778 0.15398955 -0.071870215 0.048358366 0.037123624 -0.046730757 0.057545826
0.053275965 -0.12685893 -0.09912499 0.15914385 0.14011684 0.016960219 -0.0151204495 0.12071319
0.10077453 0.013202651 -0.04162288 0.011267272 0.06622886 -0.066738844 -0.015925877 0.09549797
00000000: e9f6 f03c e875 503d aca0 dbbc b3f3 4f3e
00000010: 38c8 cebd 04aa 8a3c 73d2 1e3d 4de8 1d3d
00000020: ae17 fc3d 6d86 b33d 95e8 a83d de08 143e
00000030: 9ef6 9a3c 31c0 a53d b22a ae3d 2b53 123e
00000040: 576c d03d 1fe8 343e b288 1cbe b8e5 243e
00000050: 5620 c33d 6f0c 9d3d b704 0e3e d6f3 063e
00000060: e026 293e 439e 1d3e 49b0 92bd 2a87 963d
00000070: d323 3fbb f5a7 efbb f40f 82bd d548 c03d
00000080: 234a c3bc 52a0 333e 949b 2d3e 5d97 003d
00000090: ce8c 333e fe30 50bd 3a88 633c eb86 0e3e
000000a0: 5573 2cbd 4650 51be 70af 1d3e b130 93bd
000000b0: 6c13 463d f10e 183d c068 3fbd 2cb5 6b3d
000000c0: e637 5a3d 4fe7 01be 0b02 cbbd 9bf6 223e
000000d0: ca7a 0f3e 28f0 8a3c c3bb 77bc 7a38 f73d
000000e0: e062 ce3d ef4f 583c c17c 2abd 5d9a 383c
000000f0: ffa2 873d 60ae 88bd fc76 82bc 7194 c33d

W0__82 f4 [1, 512, 64]
0.042070232 -0.06407282 -0.007292267 0.011089662 -0.07353735 -0.026132403 0.038312286 -0.104850255
-0.020318039 0.08251308 0.06566796 -0.026769098 0.046958122 0.06809446 -0.03551666 -0.011790933
-0.005934592 0.08543529 -0.03308211 0.06598616 0.07013603 -0.07430108 -0.051004842 0.004268376
0.056230746 0.01422658 -0.10728594 -0.14904748 -0.091223225 -0.07715758 -0.081790596 -0.07816935
-0.005146258 0.056720976 -0.048931368 -0.079455785 -0.1406849 -0.029920034 0.054100323 0.015296869
-0.057087496 -0.017762944 -0.022413334 -0.09064339 0.09460204 0.09873839 0.04224268 0.013765365
0.021462886 0.072689295 -0.024397437 -0.080380626 -0.10336903 -0.035154924 0.10988269 -0.090990074
0.06448358 0.010081814 0.09718541 0.06829501 0.019576378 0.031602345 -0.005404165 0.044462793
-0.055026736 0.07567966 -0.07485274 -0.029009117 0.01717143 -0.083376706 0.017383698 -0.019373318
-0.041977875 -0.105514474 0.0083746435 -0.06604663 0.011459814 -0.13699232 -0.0016821545 -0.032564938
0.0032869698 0.0077222637 -0.13119118 -0.07787295 0.026382161 -0.09872933 0.08645035 0.071195014
-0.0052437424 0.058828592 0.06959676 -0.053641077 0.037851788 0.03046276 0.07461845 0.09222812
-0.055768747 -0.075194694 0.0058307946 -0.085545324 -0.028134951 0.03604088 -0.10010203 0.08321165
-0.07693159 0.009870375 0.04590109 0.019325366 -0.0298719 0.049110554 0.041142926 0.08040308
0.05048788 -0.026171936 0.04125359 -0.07455047 -0.07068524 -0.018625157 -0.03571715 0.050245438
0.080481656 0.06738251 -0.025830667 -0.022206971 0.01104162 -0.08939171 0.0006951085 0.01066991
0.008368092 -0.08256544 -0.09349811 0.053928677 -0.09063547 -0.008956586 -0.077232875 0.09018047
-0.037553035 0.06663612 -0.09228258 -0.0880428 -0.09606905 -0.027072903 0.10635636 0.06799967
0.041729394 -0.0328744 -0.08506801 0.06615917 -0.06487871 0.05388193 0.04165356 0.018614905
0.051358294 -0.07682603 -0.070545614 -0.016739534 0.0007566468 0.065639324 0.029707702 -0.02285751
0.10772085 0.021754162 -0.039801206 0.03567748 0.0020438319 0.01715812 -0.05232736 -0.030848742
0.09442888 -0.04407493 0.013132345 0.010143723 -0.0223349 0.027153775 0.06602113 0.060365353
0.056982387 -0.014983351 0.007003157 -0.0274404 0.02802868 -0.063578464 0.08176614 0.029964779
-0.002556478 0.086860046 -0.11880897 -0.03849417 -0.012236787 -0.037125118 0.07417274 -0.054787405
-0.031978045 -0.15195018 -0.015278107 0.10085739 0.06959618 -0.090524174 -0.075203195 0.113022886
0.05375595 -0.011717904 0.010451897 0.013969594 0.06681595 -0.07834555 -0.03308492 0.103051424
0.11790679 0.087727286 -0.06688497 -0.020724906 -0.017277166 -0.005239533 0.091071025 0.12067548
0.028947854 0.04049731 0.048292775 -0.08033442 -0.030854737 0.03873174 0.035674006 -0.06280351
-0.027034648 0.1162136 -0.112723306 0.08336216 0.09266789 0.012451138 0.054279175 -0.06196447
0.12719855 0.013658308 0.018798983 0.12600134 0.099962756 0.043049816 0.014625593 0.115818605
-0.027798757 0.1015715 -0.04753754 -0.0036898588 -0.075266905 0.044572208 0.06647106 0.096330814
0.035984956 -0.043011047 0.04161648 -0.0961464 -0.08801107 0.005375831 -0.019391147 0.012031107
00000000: d651 2c3d 9c38 83bd f8f3 eebb 6ab1 353c
00000010: c09a 96bd 9f13 d6bc 58ed 1c3d bbbb d6bd
00000020: 0472 a6bc 9efc a83d ec7c 863d de4a dbbc
00000030: 2957 403d 1c75 8b3d eb79 11bd c22e 41bc
00000040: f776 c2bb b3f8 ae3d 1b81 07bd c023 873d
00000050: 7ba3 8f3d 2a2b 98bd 74ea 50bd bcdd 8b3b
00000060: 3652 663d 9a16 693c bbb8 dbbd e79f 18be
00000070: 3ed3 babd cb04 9ebd d481 a7bd 4117 a0bd
00000080: f1a1 a8bb 4154 683d 426c 48bd b7b9 a2bd
00000090: b40f 10be dc1a f5bc 4d98 5d3d b89f 7a3c
000000a0: 94d4 69bd 9883 91bc 2b9c b7bc 3ea3 b9bd
000000b0: b7be c13d 5a37 ca3d a906 2d3d 2088 613c
000000c0: efd2 af3c 20de 943d 22dd c7bc 999e a4bd
000000d0: 24b3 d3bd 9cfe 0fbd 2d0a e13d 0159 babd
000000e0: f80f 843d 312e 253c 2509 c73d 41de 8b3d
000000f0: a45e a03c 7671 013d 6c15 b1bb 9e1e 363d
00000100: b763 61bd f0fd 9a3d 654c 99bd 87a4 edbc
00000110: 19ab 8c3c 68c1 aabd 4268 8e3c cbb4 9ebc
00000120: fef0 2bbd f917 d8bd cd35 093c 7543 87bd
00000130: f2c1 3b3c b747 0cbe bd7b dcba d062 05bd
00000140: 346a 573b 0b0b fd3b fb56 06be da7b 9fbd
00000150: 671f d83c 9a32 cabd e20c b13d b1ce 913d
00000160: b3d3 abbb 40f6 703d bf88 8e3d bfb6 5bbd
00000170: 7a0a 1b3d 0a8d f93c 8fd1 983d 19e2 bc3d
00000180: c56d 64bd adff 99bd 4010 bf3b 6332 afbd
00000190: 457b e6bc 9a9f 133d 4b02 cdbd df6a aa3d
000001a0: 4f8e 9dbd 5ab7 213c c802 3c3d 3b50 9e3c
000001b0: eab5 f4bc 2628 493d 7c85 283d 5faa a43d
000001c0: 61cc 4e3d 8766 d6bc 86f9 283d ebad 98bd
000001d0: 6cc3 90bd c993 98bc 254c 12bd 29ce 4d3d
000001e0: 91d3 a43d d7ff 893d d69a d3bc 65eb b5bc
000001f0: e9e7 343c 0013 b7bd f137 363a d9d0 2e3c
00000200: 521a 093c 1218 a9bd f07b bfbd 51e4 5c3d
00000210: 179f b9bd a5be 12bc 452c 9ebd 8ab0 b83d
00000220: 36d1 19bd 8578 883d a6fe bcbd c94f b4bd
00000230: dabf c4bd fec7 ddbc 5dd1 d93d 6943 8b3d
00000240: 71ec 2a3d 4fa7 06bd 2338 aebd 757e 873d
00000250: 21df 84bd 4cb3 5c3d ec9c 2a3d 497e 983c
00000260: 135d 523d f756 9dbd 387a 90bd 5921 89bc
00000270: b559 463a e96d 863d 915d f33c ac3f bbbc
00000280: c09c dc3d c935 b23c 9706 23bd 8d22 123d
00000290: cff1 053b 308f 8c3c 3755 56bd 80b6 fcbc
000002a0: ee63 c13d ea87 34bd 0c29 573c dc31 263c
000002b0: aef7 b6bc 9871 de3c 1636 873d a941 773d
000002c0: 5d66 693d bb7c 75bc bd7a e53b b1ca e0bc
000002d0: 679c e53c 6d35 82bd 0275 a73d b278 f53c
000002e0: 958a 27bb aee3 b13d 1e52 f3bd 10ac 1dbd
000002f0: ce7c 48bc 8210 18bd e1e7 973d c268 60bd
00000300: 69fb 02bd d498 1bbe 0651 7abc 528e ce3d
00000310: 7188 8e3d bd64 b9bd 2204 9abd 8b78 e73d
00000320: 332f 5c3d 74fc 3fbc 6f3e 2b3c b9e0 643c
00000330: cdd6 883d a273 a0bd 0e84 07bd a00c d33d
00000340: 1d79 f13d 5daa b33d fdfa 88bd 47c7 a9bc
00000350: d888 8dbc 63b0 abbb 7283 ba3d b524 f73d
00000360: 0d24 ed3c 82e0 253d a5ce 453d 5f86 a4bd
00000370: 13c3 fcbc 2ca5 1e3d e81e 123d 209f 80bd
00000380: c477 ddbc 6501 ee3d 7adb e6bd c8b9 aa3d
00000390: aac8 bd3d dcff 4b3c d753 5e3d 75ce 7dbd
000003a0: 5640 023e 19c7 5f3c 5300 9a3c 7f06 013e
000003b0: 46b9 cc3d 0155 303d 2fa0 6f3c 4e32 ed3d
000003c0: 38ba e3bc b804 d03d b9b6 42bd 8fd1 71bb
000003d0: 8925 9abd 5991 363d fb21 883d 1749 c53d
000003e0: f664 133d 5a2c 30bd 0b76 2a3d 67e8 c4bd
000003f0: 263f b4bd bd27 b03b 2fda 9ebc 1f1e 453c

W0__61 f4 [1, 256, 126]
-0.089424595 0.09618546 0.034582913 -0.061334305 0.03779653 0.034250684 -0.10681967 -0.081650324
0.04298791 -0.0020713059 0.1073382 -0.016374346 -0.14159995 -0.16542979 -0.049178906 -0.09272781
-0.05721505 0.060002435 -0.018297864 0.037702452 -0.00082553615 0.13665241 -0.05147146 -0.10859173
0.06262945 0.0051275375 -0.07346852 0.01115827 0.08879482 0.15544353 -0.003661269 0.07487694
0.035811525 -0.0560621 0.09664215 0.024080312 0.001030024 0.075677514 0.08929914 0.04348807
-0.11733793 0.027262475 -0.16723867 0.051773503 -0.06608061 -0.024744162 0.06700744 -0.026006693
0.05904395 0.119789384 0.061845988 0.07257125 0.028845893 -0.020193825 -0.13293755 0.009269983
0.090128 -0.038531654 0.02202202 0.008539254 0.100867584 -0.02612997 0.12471888 -0.14271833
-0.03401503 -0.06965537 -0.053423304 -0.044476774 -0.070818655 0.009117172 -0.1342798 -0.017257122
0.046953678 -0.11663399 0.027563104 0.109488145 -0.043560106 0.088852756 0.14839336 -0.1424642
-0.011392625 -0.027556464 -0.107967794 -0.092363425 0.0333654 -0.08868534 0.010852185 -0.043944128
-0.08928924 -0.06144133 0.013137273 -0.05511126 -0.0109863505 0.03329714 0.030918168 0.05085598
-0.03442634 -0.018483471 0.013632053 -0.10381012 -0.07868836 0.09258496 0.13011561 -0.10576559
0.042427327 0.09098381 0.011827559 -0.060124043 -0.03311668 -0.024176711 0.01238549 -0.049069
-0.10563567 0.0995514 -0.10379016 -0.019072691 -0.037984375 0.1302933 -0.037335094 0.042115193
-0.034595814 0.13307202 0.02199105 0.008985469 -0.11108646 -0.004836733 -0.049525335 -0.11395725
0.09408869 0.042101536 0.075790174 -0.086704075 0.07461332 -0.11590911 -0.13168728 0.019278094
0.064019784 -0.10349686 0.107748844 -0.06565937 -0.0891247 -0.021634165 0.100122936 -0.074625924
0.12928607 -0.14424309 0.13960505 -0.098595634 -0.1558868 -0.1269343 -0.16757679 0.0019254208
0.050565936 -0.0894082 -0.122592054 -0.095147915 -0.07935764 -0.0049624415 0.0037828395 -0.1280083
-0.033956375 -0.011272327 -0.044921014 0.11669166 -0.09633403 -0.08177064 -0.040061496 -0.15246557
0.05256504 -0.017566884 0.0549884 -0.019489223 -0.10773955 0.00069185457 0.016537588 0.008180661
-0.04121426 0.011533258 -0.02704962 -0.09204136 -0.0928306 0.00477953 -0.042917803 -0.030508114
-0.088739224 -0.11138451 -0.022251822 -0.033707783 -0.036006853 -0.07516658 0.014776844 -0.09704551
-0.08159122 -0.11145521 -0.08283669 -0.046609525 -0.03918998 -0.02058347 0.0035732605 -0.022272173
-0.110934205 -0.09099056 0.11043916 -0.12673557 0.10009638 0.007111613 -0.043500114 0.097455986
0.039359134 0.049425963 0.0029685246 0.019439304 -0.08313903 -0.0772742 0.073713325 -0.15664232
0.0059273676 -0.0447699 0.0009582586 -0.056829453 -0.0014096498 -0.07727766 -0.07520464 0.06792521
-0.15234883 -0.06694288 0.013288134 -0.09236031 -0.103869535 -0.14055337 0.06536109 0.041045886
-0.12696068 -0.0783142 -0.13489372 -0.1580607 -0.13807993 0.064020164 0.09950441 -0.12576978
-0.05852577 -0.11722286 0.01042408 0.03887645 -0.13660264 -0.036315322 -0.062435377 0.043815665
0.0012734685 -0.11808946 -0.059770964 0.017209549 0.049544413 0.073640116 -0.11038241 0.06643653
00000000: 3e24 b7bd e2fc c43d d0a6 0d3d ae39 7bbd
00000010: 89d0 1a3d 724a 0c3d 45c4 dabd 4938 a7bd
00000020: 1714 303d bfbe 07bb 21d4 db3d 7e23 86bc
00000030: 94ff 10be 6d66 29be d26f 49bd 14e8 bdbd
00000040: 545a 6abd 1dc5 753d 67e5 95bc e36d 1a3d
00000050: cb68 58ba 9cee 0b3e bdd3 52bd 5765 debd
00000060: de43 803d e704 a83b aa76 96bd 2dd1 363c
00000070: 0fda b53d 972c 1f3e e7f1 6fbb 1559 993d
00000080: 1baf 123d 5fa1 65bd 52ec c53d 1344 c53c
00000090: df01 873a d0fc 9a3d 78e2 b63d 8c20 323d
000000a0: de4e f0bd 8e55 df3c 9d40 2bbe 7410 543d
000000b0: 4555 87bd 45b4 cabc 323b 893d fd0b d5bc
000000c0: 12d8 713d 2354 f53d 3852 7d3d 3ca0 943d
000000d0: 394e ec3c 856d a5bc c820 08be 20e1 173c
000000e0: 0795 b83d 5ed3 1dbd 8667 b43c 3ae8 0b3c
000000f0: aa93 ce3d 850e d6bc 9d6c ff3d c124 12be
00000100: 5853 0bbd 7aa7 8ebd 65d2 5abd 472d 36bd
00000110: 5f09 91bd 3160 153c a580 09be cf5e 8dbc
00000120: 8052 403d cddd eebd 05cc e13c 523b e03d
00000130: 156c 32bd 6ff8 b53d 6ef4 173e 23e2 11be
00000140: 22a8 3abc 18be e1bc 381e ddbd 0929 bdbd
00000150: 28aa 083d a9a0 b5bd 5dcd 313c c2fe 33bd
00000160: 47dd b6bd e7a9 7bbd b73d 573c 58bc 61bd
00000170: 1800 34bc 9562 083d 1948 fd3c 5c4e 503d
00000180: a202 0dbd a66a 97bc f958 5f3c 669a d4bd
00000190: 5d27 a1bd 2f9d bd3d 073d 053e a19b d8bd
000001a0: 47c8 2d3d b855 ba3d 61c8 413c a144 76bd
000001b0: 5ba5 07bd 3d0e c6bc 83ec 4a3c 93fc 48bd
000001c0: 8457 d8bd 9be1 cb3d ef8f d4bd 553e 9cbc
000001d0: 8195 1bbd 9b6b 053e afec 18bd fb80 2c3d
000001e0: 57b4 0dbd 0844 083e 9326 b43c ca37 133c
000001f0: 4c81 e3bd 757d 9ebb 14db 4abd 6b62 e9bd
00000200: 92b1 c03d a972 2c3d e137 9b3d e891 b1bd
00000210: dece 983d c161 edbd 08d9 06be 18ed 9d3c
00000220: ce1c 833d 29f6 d3bd 6dab dc3d 6b78 86bd
00000230: 0387 b6bd 223a b1bc 410d cd3d 7ad5 98bd
00000240: 9163 043e 76b4 13be a0f4 0e3e 82ec c9bd
00000250: caa0 1fbe 11fb 01be 4099 2bbe 675e fc3a
00000260: 3a1e 4f3d a51b b7bd 8b11 fbbd e9dc c2bd
00000270: 4286 a2bd fa9b a2bb 84e9 773b 9c14 03be
00000280: d715 0bbd 91af 38bc 19ff 37bd 09fc ee3d
00000290: c74a c5bd 5e77 a7bd 8617 24bd ef1f 1cbe
000002a0: 704e 573d 6de8 8fbc 843b 613d dda7 9fbc
000002b0: 8ea6 dcbd 935d 353a d679 873c 2e08 063c
000002c0: 49d0 28bd fdf5 3c3c 2a97 ddbc 2e80 bcbd
000002d0: f81d bebd 9b9d 9c3b 94ca 2fbd 27ec f9bc
000002e0: e9bc b5bd 901d e4bd 7449 b6bc 2c11 0abd
000002f0: ec7b 13bd f0f0 99bd 931a 723c ccbf c6bd
00000300: 4c19 a7bd a142 e4bd 48a6 a9bd a1e9 3ebd
00000310: ac85 20bd aa9e a8bc 5d2d 6a3b 2274 b6bc
00000320: 7931 e3bd 4259 babd ed2d e23d f8c6 01be
00000330: 55ff cc3d 8908 e93b 2d2d 32bd 0197 c73d
00000340: 0b37 213d e172 4a3d 948b 423b 2d3f 9f3c
00000350: cc44 aabd f041 9ebd 03f7 963d d866 20be
00000360: 5d3a c23b a560 37bd a533 7b3a 00c6 68bd
00000370: 00c4 b8ba c043 9ebd e404 9abd 5f1c 8b3d
00000380: 5501 1cbe 5919 89bd 79b6 593c 6727 bdbd
00000390: 8db9 d4bd 39ed 0fbe 09dc 853d bb1f 283d
000003a0: fb01 02be 3263 a0bd 9421 0abe aada 21be
000003b0: d364 0dbe 011d 833d f8c8 cb3d cbc9 00be
000003c0: b8b8 6fbd 8a12 f0bd c3c9 2a3c ea3c 1f3d
000003d0: 90e1 0bbe 60bf 14bd 3dbc 7fbd 0e78 333d
000003e0: 83ea a63a e3d8 f1bd 66d2 74bd 0afb 8c3c
000003f0: 15ef 4a3d a1d0 963d 2c10 e2bd e00f 883d

W0__104 f4 [1, 256, 128]
0.111472875 -0.049008723 -0.08122057 0.0789552 0.06596128 0.09542682 -0.05301432 0.045800596
0.030973723 -0.101542644 -0.11328926 0.05464479 0.11583816 0.024054457 -0.07506786 -0.075753935
0.018070282 -0.09018682 -0.0866557 0.07044198 0.09383881 -0.008174162 0.008479062 0.10933794
-0.04197509 -0.06339661 -0.0018403719 -0.046911165 -0.02552359 0.12721607 0.09499619 -0.045764685
0.11919874 0.037780974 -0.095583044 -0.14164276 0.042548973 0.09580592 0.101086184 -0.03399096
0.08051468 0.07610502 -0.11345236 0.08536467 0.054029975 -0.083428465 0.05632116 0.048002243
0.012910759 -0.1392807 -0.07624594 -0.106681325 -0.09769582 0.075916454 0.005857459 -0.057144508
-0.050214894 0.14771207 -0.040945876 0.10394312 0.008530465 -0.06457973 -0.05241317 0.021647133
0.076151446 -0.03236406 -0.14884599 -0.15331335 -0.0076944465 0.041762628 0.020261869 0.010259139
0.10478589 0.06312659 -0.12423265 0.08223844 0.017879082 -0.091989994 -0.06843208 -0.010787047
-0.10462626 0.12110597 0.03384147 -0.12197447 -0.009684841 -0.00044126654 0.0203511 -0.11285247
0.15313499 0.00048130727 0.15973236 -0.0693746 -0.09254907 0.109797426 -0.09597904 0.071623564
-0.073286116 0.0113141285 0.10007307 0.015840067 0.04944813 0.06767626 0.046898387 0.092487775
0.08889596 -0.13295399 -0.16908383 0.007483301 0.08518873 -0.095941626 -0.03899238 -0.052919604
0.04797427 0.14168331 -0.10888534 0.08965688 0.07464936 0.027195523 0.10289514 0.07187473
-0.06936547 -0.11167037 -0.13789299 -0.18178235 0.008561137 0.02853459 -0.08197178 0.10614742
0.05687882 -0.04139414 0.0855635 -0.083312266 0.014597104 -0.039836023 -0.1253567 -0.08658858
-0.11912694 -0.08031626 -0.047075495 -0.043538965 0.098835886 -0.017010862 -0.12200521 -0.13877268
-0.069151394 0.032370627 0.030040773 -0.119687214 -0.12072005 -0.112332195 0.019922791 0.07601359
0.06923927 0.037836213 0.040460978 -0.044063408 0.09255585 0.04454261 -0.02068941 -0.048276283
0.013336491 -0.063971594 0.06843468 0.066733494 0.0768842 -0.06941164 0.03792452 0.11401876
-0.13099651 -0.002724925 -0.07051564 -0.14523815 0.040438153 0.049151246 -0.1859635 -0.05508091
0.016607849 -0.06058345 -0.079473145 -0.12684134 -0.026541326 0.014142668 -0.122257315 -0.041612823
0.009805671 0.039642394 0.047795612 0.023366198 0.05520259 0.025920825 -0.116584964 0.07133331
-0.15517925 0.010823821 -0.1433065 -0.07476393 0.044452947 0.016164672 -0.09449066 -0.013706657
0.05779702 0.012664171 0.05139627 -0.022509234 0.14334264 -0.036599062 -0.1216312 0.05803365
0.029393874 -0.13077143 0.011320199 0.08462322 -0.0432213 0.09447455 0.069477834 -0.091702946
0.094413586 0.05579725 -0.09148949 -0.07126576 -0.0549633 -0.11454301 -0.045778096 0.020661667
0.0012592905 -0.062935784 -0.062425576 -0.16686334 -0.026344884 -0.031462397 0.09376535 0.043202322
-0.075858735 -0.023646146 0.011542537 -0.01170427 0.13217004 -0.06432708 0.115207426 0.07558462
0.0012882821 -0.028763795 0.08100903 -0.034928065 0.016495066 -0.095117524 -0.044698477 -0.06110015
-0.12550196 -0.052303646 -0.10100491 -0.016814519 0.0663796 -0.08642937 0.021046853 0.10157283
00000000: e44b e43d 5fbd 48bd f856 a6bd 44b3 a13d
00000010: b516 873d 236f c33d 8b25 59bd 6899 3b3d
00000020: 9bbc fd3c 97f5 cfbd 3304 e8bd 37d3 5f3d
00000030: 8f3c ed3d da0d c53c 2ebd 99bd e124 9bbd
00000040: 2108 943c deb3 b8bd 8b78 b1bd e343 903d
00000050: 902e c03d ecec 05bc c3eb 0a3c 92ec df3d
00000060: 12ee 2bbd 15d6 81bd a238 f1ba ec25 40bd
00000070: d916 d1bc ee44 023e 5d8d c23d c073 3bbd
00000080: 781e f43d 39c0 1a3d 0bc1 c3bd cd0a 11be
00000090: d547 2e3d e535 c43d 4606 cf3d 1b3a 0bbd
000000a0: e1e4 a43d f3dc 9b3d b659 e8bd acd3 ae3d
000000b0: 894e 5d3d 8bdc aabd 04b1 663d 009e 443d
000000c0: a687 533c 9a9f 0ebe d526 9cbd bd7b dabd
000000d0: bf14 c8bd 167a 9b3d edef bf3b 5c10 6abd
000000e0: 22ae 4dbd d541 173e ddb6 27bd 21e0 d43d
000000f0: 5dc3 0b3c 6142 84bd 31af 56bd 5455 b13c
00000100: 4af5 9b3d 2d90 04bd 156b 18be 2dfe 1cbe
00000110: b221 fcbb 4a0f 2b3d 38fc a53c f315 283c
00000120: fc99 d63d 8348 813d b06d febd a16c a83d
00000130: 2777 923c 4065 bcbd 1e26 8cbd 28bc 30bc
00000140: 4b46 d6bd 6806 f83d 5a9d 0a3d c0cd f9bd
00000150: 2bad 1ebc cb59 e7b9 5ab7 a63c 321f e7bd
00000160: 6bcf 1c3e f857 fc39 e190 233e 4514 8ebd
00000170: 5e8a bdbd 79dd e03d a990 c4bd 60af 923d
00000180: 0817 96bd e55e 393c 1cf3 cc3d 07c3 813c
00000190: 1f8a 4a3d da99 8a3d 8618 403d 3b6a bd3d
000001a0: 160f b63d 1725 08be 5024 2dbe 7b36 f53b
000001b0: 6e77 ae3d 0b7d c4bd 79b6 1fbd 3ac2 58bd
000001c0: ab80 443d 6e15 113e 47ff debd 079e b73d
000001d0: c3e1 983d 25c9 de3c b0ba d23d 0f33 933d
000001e0: 7c0f 8ebd 6fb3 e4bd d233 0dbe 2725 3abe
000001f0: 0344 0c3c 5fc1 e93c d2e0 a7bd d263 d93d
00000200: c4f9 683d e78c 29bd eb3b af3d 9f9f aabd
00000210: b128 6f3c 192b 23bd 825d 00be 5a55 b1bd
00000220: d3f8 f3bd da7c a4bd 3cd2 40bd ea55 32bd
00000230: 786a ca3d 5d5a 8bbc dedd f9bd 6d1a 0ebe
00000240: 3f9f 8dbd 1097 043d 1118 f63c 921e f5bd
00000250: 133c f7bd 6c0e e6bd 1f35 a33c 03ad 9b3d
00000260: 52cd 8d3d 25fa 1a3d 69ba 253d d57b 34bd
00000270: ec8d bd3d 5072 363d d67c a9bc 5abd 45bd
00000280: 4c81 5a3c 8a03 83bd 7b27 8c3d 92ab 883d
00000290: 7775 9d3d b127 8ebd be56 1b3d ab82 e93d
000002a0: f323 06be a894 32bb 816a 90bd 4fb9 14be
000002b0: 7aa2 253d d152 493d 376d 3ebe 859c 61bd
000002c0: 2f0d 883c 5a26 78bd d1c2 a2bd b2e2 01be
000002d0: 326d d9bc a6b6 673c 0b62 fabd 3572 2abd
000002e0: f7a7 203c 1060 223d 55c5 433d 786a bf3c
000002f0: 1c1c 623d e957 d43c 19c4 eebd 3317 923d
00000300: 4fe7 1ebe 6556 313c f0be 12be d51d 99bd
00000310: 4b14 363d c66b 843c 5284 c1bd e391 60bc
00000320: 91bc 6c3d 627d 4f3c e584 523d 4965 b8bc
00000330: 6ac8 123e e6e8 15bd c719 f9bd b1b4 6d3d
00000340: 6ccb f03c f2e8 05be 5b78 393c f04e ad3d
00000350: d108 31bd df7b c13d 654a 8e3d c1ce bbbd
00000360: e95b c13d a88b 643d d75e bbbd c8f3 91bd
00000370: 3221 61bd 8795 eabd d081 3bbd a842 a93c
00000380: c70e a53a 7ae4 80bd f6b1 7fbd 39de 2abe
00000390: 3ad1 d7bc b7de 00bd 0c08 c03d ebf4 303d
000003a0: d35b 9bbd 90b5 c1bc e91c 3d3c 44c3 3fbc
000003b0: 9557 073e ebbd 83bd dff1 eb3d 1ccc 9a3d
000003c0: 93db a83a 0da2 ebbc 10e8 a53d bb10 0fbd
000003d0: a920 873c facc c2bd c015 37bd 2744 7abd
000003e0: 9683 00be 593c 56bd aadb cebd 9abe 89bc
000003f0: 07f2 873d e201 b1bd 736a ac3c 6a05 d03d

R0__83 f4 [1, 512, 128]
-0.06697481 -0.04607828 -0.052190177 -0.062438346 0.031011926 0.07284416 -0.05256816 -0.045624252
0.05751595 -0.015951565 -0.04269754 -0.04861166 0.008664676 -0.017509723 0.00052966265 -0.043537337
-0.014272251 0.020984532 0.01527219 -0.054809324 0.0068851975 -0.010710017 -0.012254541 -0.03202162
-0.07271877 0.02670306 0.041205388 -0.05877794 -0.030267075 0.028079914 0.004209035 0.032543726
-0.032810707 0.0031373936 -0.063376985 0.013559313 -0.09716545 0.110288225 -0.04702996 0.026019135
-0.04204948 0.04022643 -0.02079171 0.014917107 0.053774275 0.09216294 0.054844044 0.0522201
-0.0072290506 -0.03417442 0.055432964 0.04224586 -0.072512485 -0.055168983 0.029549241 0.024658779
0.0015576256 -0.050071683 0.0017394206 0.016366504 0.042611904 -0.09763634 -0.05363646 -0.07333057
0.05242534 0.008195905 -0.08100093 -0.015053819 -0.0061639557 0.03579071 0.024723174 -0.037978366
-0.032764744 -0.0055699316 -0.006605694 0.023795057 -0.032393634 -0.046050653 -0.0053635743 0.040258642
-0.05339855 -0.0434172 -0.002774998 -0.020018524 0.0507781 0.026428647 -0.03695065 0.008496238
0.078745484 0.058623128 0.05012787 -0.009094244 -0.008912004 -0.052851763 -0.03371073 -0.018480666
0.066120826 0.032431904 0.0048681004 0.0012206308 0.08518484 0.023527892 0.091870256 -8.0865924e-05
-0.033116966 -0.015598427 0.036782965 0.001049314 0.017212447 -0.023559375 -0.049601153 -0.04536912
0.05287099 -0.012429664 -0.02918708 -0.023245517 0.018668693 0.043381006 0.0532837 -0.020832213
0.0011391272 0.095830716 -0.024441654 -0.020828988 -0.05290023 0.058454495 0.038454358 -0.023593722
0.007565545 -0.00028110977 0.04580422 0.039223433 -0.019170715 0.107396334 -0.092947826 -0.069362044
-0.023837745 -0.061984625 -0.07363923 -0.005762587 0.039021738 -0.042645197 -0.052072126 -0.023726337
-0.022839025 -0.06371444 -0.06628512 -0.03304196 -0.002962376 -0.0741955 0.08927263 0.035405073
0.016272886 -0.056291606 0.031717885 -0.07784926 -0.024969807 0.022463385 -0.05194286 0.009216039
0.06378221 0.05427318 -0.0606581 0.019218478 -0.07517028 -0.01137614 0.04775514 -0.03694772
-0.036434498 -0.047778998 -0.06052052 -0.027984573 0.024760991 -0.069284074 -0.093390636 0.001608622
0.018542808 0.0102907885 -0.02744959 0.056179732 -0.04203619 -0.17269292 -0.010434897 0.00808272
0.010237614 -0.11883244 0.013663642 0.027500913 -0.042367145 -0.06893503 0.036277596 -0.024170598
-0.052584127 -0.020938966 0.022171702 -0.015340992 0.005039131 -0.0068659857 -0.011246142 -0.066453256
-0.006968861 -0.048734363 -0.004088144 -0.06450404 -0.07767567 -0.056011487 -0.1395428 0.05606658
-0.1230978 -0.050446488 -0.00031024645 0.02419873 0.020320266 -0.033367362 0.030061854 -0.011769643
-0.018814094 -0.020416033 -0.058810856 -0.016814204 -0.040836822 0.06697676 -0.022989362 -0.038664885
0.0066833547 -0.0012187457 0.0020802799 -0.0049924734 -0.032008912 0.0039499397 0.014626229 0.05767749
-0.017845368 0.016594352 -0.095193096 0.0067709303 -0.090470284 -0.047137327 -0.055956807 -0.06454729
0.0730577 -0.034128018 -0.015004168 -0.008682281 0.00732161 -0.020615777 -0.01042072 0.04747357
-0.050313786 -0.020944169 -0.0083403215 0.013224995 0.040370125 -0.050980866 -0.043848004 -0.02975103
00000000: 172a 89bd 94bc 3cbd 5ec5 55bd 5abf 7fbd
00000010: b90c fe3c 522f 953d b651 57bd 7fe0 3abd
00000020: d895 6b3d dbac 82bc 9ee3 2ebd 051d 47bd
00000030: 49f6 0d3c 8d70 8fbc 0fd9 0a3a 3554 32bd
00000040: 29d6 69bc c1e7 ab3c 3538 7a3c be7f 60bd
00000050: 399d e13b 1179 2fbc 45c7 48bc 1a29 03bd
00000060: 94ed 94bd 60c0 da3c fbc6 283d 23c1 70bd
00000070: a8f2 f7bc d907 e63c f2eb 893b 924c 053d
00000080: 8564 06bd bb9c 4d3b cbcb 81bd e127 5e3c
00000090: aefe c6bd cbde e13d 7da2 40bd 1526 d53c
000000a0: 133c 2cbd 78c4 243d 6053 aabc e266 743c
000000b0: 6a42 5c3d ecbf bc3d 26a4 603d bee4 553d
000000c0: ace1 ecbb 7afa 0bbd ad0d 633d ff09 2d3d
000000d0: 6d81 94bd dff8 61bd 4011 f23c 3501 ca3c
000000e0: 3e29 cc3a f717 4dbd 45fd e33a 0c13 863c
000000f0: d289 2e3d 90f5 c7bd e8b1 5bbd 562e 96bd
00000100: f4bb 563d 1e48 063c d1e3 a5bd 4ba4 76bc
00000110: 02fb c9bb 4899 123d 4188 ca3c 348f 1bbd
00000120: 5334 06bd f983 b6bb 9474 d8bb daed c23c
00000130: 30af 04bd 9c9f 3cbd ecc0 afbb 3fe6 243d
00000140: 70b8 5abd 3cd6 31bd bedc 35bb e3fd a3bc
00000150: b2fc 4f3d e480 d83c 9159 17bd ce33 0b3c
00000160: 5045 a13d ce1e 703d e252 4d3d 0600 15bc
00000170: a703 12bc 177b 58bd 4314 0abd c464 97bc
00000180: 5b6a 873d 51d7 043d 9684 9f3b 93fd 9f3a
00000190: 6475 ae3d 91bd c03c 7926 bc3d 9096 a9b8
000001a0: a8a5 07bd 8b90 7fbc bca9 163d 2389 893a
000001b0: 1e01 8d3c 97ff c0bc 942a 4bbd f8d4 39bd
000001c0: 408f 583d caa5 4bbc be19 efbc 626d bebc
000001d0: 16ef 983c 48b0 313d 0240 5a3d 51a8 aabc
000001e0: c44e 953a e542 c43d dd39 c8bc 8ea1 aabc
000001f0: e9ad 58bd fb6d 6f3d 5182 1d3d 9f47 c1bc
00000200: 64e8 f73b ea61 93b9 359d 3b3d c0a8 203d
00000210: e70b 9dbc 9cf2 db3d 6e5b bebd b00d 8ebd
00000220: 6047 c3bc 97e3 7dbd 2ad0 96bd 15d4 bcbb
00000230: 42d5 1f3d bbac 2ebd 9549 55bd bc5d c2bc
00000240: e818 bbbc b77c 82bd 7ec0 87bd 0257 07bd
00000250: 6c24 42bb cff3 97bd 92d4 b63d e904 113d
00000260: b74e 853c 0792 66bd 9dea 013d 6f6f 9fbd
00000270: 7b8d ccbc 2205 b83c 09c2 54bd dffe 163c
00000280: 3fa0 823d 8e4d 5e3d a174 78bd 1270 9d3c
00000290: e0f2 99bd fd62 3abc e59a 433d 7e56 17bd
000002a0: 573c 15bd e9b3 43bd 5de4 77bd e73f e5bc
000002b0: 90d7 ca3c cfe4 8dbd 9743 bfbd 66d8 d23a
000002c0: 16e7 973c b29a 283c f6dd e0bc b81c 663d
000002d0: 242e 2cbd 6ad6 30be 21f7 2abc 636d 043c
000002e0: aabb 273c 6c5e f3bd 78dd 5f3c 9849 e13c
000002f0: 2c89 2dbd cf2d 8dbd d197 143d 6b01 c6bc
00000300: 7462 57bd 3288 abbc 6ea1 b53c c958 7bbc
00000310: 4b1f a53b 10fc e0bb bd41 38bc a518 88bd
00000320: 0b5b e4bb af9d 47bd d6f5 85bb b21a 84bd
00000330: 6c14 9fbd 4d6c 65bd 4fe4 0ebe 12a6 653d
00000340: b31a fcbd faa0 4ebd 93a8 a2b9 6a3c c63c
00000350: b076 a63c 37ac 08bd 4744 f63c 76d5 40bc
00000360: 0420 9abc 863f a7bc a7e3 70bd f1bd 89bc
00000370: 8344 27bd 1d2b 893d 3054 bcbc 125f 1ebd
00000380: 0b00 db3b 52be 9fba 4e55 083b e797 a3bb
00000390: c71b 03bd 7f6e 813b daa2 6f3c 3b3f 6c3d
000003a0: 7330 92bc e1f0 873c 99f4 c2bd aede dd3b
000003b0: 7c48 b9bd 1213 41bd f732 65bd 5f31 84bd
000003c0: 479f 953d d2c9 0bbd 0bd4 75bc 2040 0ebc
000003d0: 1eea ef3b 6be2 a8bc abbb 2abc a573 423d
000003e0: d415 4ebd 1b93 abbc d8a5 08bc a6ad 583c
000003f0: 255b 253d 50d1 50bd f799 33bd 6fb8 f3bc
